{"config": [{"config": {"kernel_initializer": {"config": {"seed": null, "distribution": "uniform", "mode": "fan_avg", "scale": 1.0}, "class_name": "VarianceScaling"}, "activity_regularizer": null, "data_format": "channels_first", "name": "conv3d_25", "kernel_constraint": null, "padding": "same", "dilation_rate": [1, 1, 1], "use_bias": true, "bias_initializer": {"config": {}, "class_name": "Zeros"}, "bias_constraint": null, "kernel_size": [3, 3, 3], "trainable": true, "bias_regularizer": null, "dtype": "float32", "strides": [1, 1, 1], "batch_input_shape": [null, 1, 40, 50, 50], "filters": 32, "activation": "relu", "kernel_regularizer": null}, "class_name": "Conv3D"}, {"config": {"strides": [2, 2, 2], "data_format": "channels_first", "name": "max_pooling3d_25", "pool_size": [2, 2, 2], "padding": "same", "trainable": true}, "class_name": "MaxPooling3D"}, {"config": {"moving_mean_initializer": {"config": {}, "class_name": "Zeros"}, "axis": 1, "beta_constraint": null, "momentum": 0.99, "beta_regularizer": null, "gamma_initializer": {"config": {}, "class_name": "Ones"}, "trainable": true, "gamma_constraint": null, "gamma_regularizer": null, "epsilon": 0.001, "name": "batch_normalization_31", "beta_initializer": {"config": {}, "class_name": "Zeros"}, "moving_variance_initializer": {"config": {}, "class_name": "Ones"}, "center": true, "scale": true}, "class_name": "BatchNormalization"}, {"config": {"name": "dropout_30", "seed": null, "noise_shape": null, "rate": 0.5, "trainable": true}, "class_name": "Dropout"}, {"config": {"kernel_initializer": {"config": {"seed": null, "distribution": "uniform", "mode": "fan_avg", "scale": 1.0}, "class_name": "VarianceScaling"}, "activity_regularizer": null, "data_format": "channels_first", "name": "conv3d_26", "kernel_constraint": null, "padding": "same", "dilation_rate": [1, 1, 1], "use_bias": true, "bias_initializer": {"config": {}, "class_name": "Zeros"}, "bias_constraint": null, "kernel_size": [3, 3, 3], "trainable": true, "bias_regularizer": null, "dtype": "float32", "strides": [1, 1, 1], "batch_input_shape": [null, 1, 40, 50, 50], "filters": 64, "activation": "relu", "kernel_regularizer": null}, "class_name": "Conv3D"}, {"config": {"strides": [2, 2, 2], "data_format": "channels_first", "name": "max_pooling3d_26", "pool_size": [2, 2, 2], "padding": "same", "trainable": true}, "class_name": "MaxPooling3D"}, {"config": {"moving_mean_initializer": {"config": {}, "class_name": "Zeros"}, "axis": 1, "beta_constraint": null, "momentum": 0.99, "beta_regularizer": null, "gamma_initializer": {"config": {}, "class_name": "Ones"}, "trainable": true, "gamma_constraint": null, "gamma_regularizer": null, "epsilon": 0.001, "name": "batch_normalization_32", "beta_initializer": {"config": {}, "class_name": "Zeros"}, "moving_variance_initializer": {"config": {}, "class_name": "Ones"}, "center": true, "scale": true}, "class_name": "BatchNormalization"}, {"config": {"name": "dropout_31", "seed": null, "noise_shape": null, "rate": 0.5, "trainable": true}, "class_name": "Dropout"}, {"config": {"kernel_initializer": {"config": {"seed": null, "distribution": "uniform", "mode": "fan_avg", "scale": 1.0}, "class_name": "VarianceScaling"}, "activity_regularizer": null, "data_format": "channels_first", "name": "conv3d_27", "kernel_constraint": null, "padding": "same", "dilation_rate": [1, 1, 1], "use_bias": true, "bias_initializer": {"config": {}, "class_name": "Zeros"}, "bias_constraint": null, "kernel_size": [3, 3, 3], "trainable": true, "bias_regularizer": null, "dtype": "float32", "strides": [1, 1, 1], "batch_input_shape": [null, 1, 40, 50, 50], "filters": 128, "activation": "relu", "kernel_regularizer": null}, "class_name": "Conv3D"}, {"config": {"strides": [2, 2, 2], "data_format": "channels_first", "name": "max_pooling3d_27", "pool_size": [2, 2, 2], "padding": "same", "trainable": true}, "class_name": "MaxPooling3D"}, {"config": {"moving_mean_initializer": {"config": {}, "class_name": "Zeros"}, "axis": 1, "beta_constraint": null, "momentum": 0.99, "beta_regularizer": null, "gamma_initializer": {"config": {}, "class_name": "Ones"}, "trainable": true, "gamma_constraint": null, "gamma_regularizer": null, "epsilon": 0.001, "name": "batch_normalization_33", "beta_initializer": {"config": {}, "class_name": "Zeros"}, "moving_variance_initializer": {"config": {}, "class_name": "Ones"}, "center": true, "scale": true}, "class_name": "BatchNormalization"}, {"config": {"name": "dropout_32", "seed": null, "noise_shape": null, "rate": 0.5, "trainable": true}, "class_name": "Dropout"}, {"config": {"kernel_initializer": {"config": {"seed": null, "distribution": "uniform", "mode": "fan_avg", "scale": 1.0}, "class_name": "VarianceScaling"}, "activity_regularizer": null, "data_format": "channels_first", "name": "conv3d_28", "kernel_constraint": null, "padding": "same", "dilation_rate": [1, 1, 1], "use_bias": true, "bias_initializer": {"config": {}, "class_name": "Zeros"}, "bias_constraint": null, "kernel_size": [3, 3, 3], "trainable": true, "bias_regularizer": null, "dtype": "float32", "strides": [1, 1, 1], "batch_input_shape": [null, 1, 40, 50, 50], "filters": 256, "activation": "relu", "kernel_regularizer": null}, "class_name": "Conv3D"}, {"config": {"strides": [2, 2, 2], "data_format": "channels_first", "name": "max_pooling3d_28", "pool_size": [2, 2, 2], "padding": "same", "trainable": true}, "class_name": "MaxPooling3D"}, {"config": {"moving_mean_initializer": {"config": {}, "class_name": "Zeros"}, "axis": 1, "beta_constraint": null, "momentum": 0.99, "beta_regularizer": null, "gamma_initializer": {"config": {}, "class_name": "Ones"}, "trainable": true, "gamma_constraint": null, "gamma_regularizer": null, "epsilon": 0.001, "name": "batch_normalization_34", "beta_initializer": {"config": {}, "class_name": "Zeros"}, "moving_variance_initializer": {"config": {}, "class_name": "Ones"}, "center": true, "scale": true}, "class_name": "BatchNormalization"}, {"config": {"name": "dropout_33", "seed": null, "noise_shape": null, "rate": 0.5, "trainable": true}, "class_name": "Dropout"}, {"config": {"kernel_initializer": {"config": {"seed": null, "distribution": "uniform", "mode": "fan_avg", "scale": 1.0}, "class_name": "VarianceScaling"}, "activity_regularizer": null, "data_format": "channels_first", "name": "conv3d_29", "kernel_constraint": null, "padding": "same", "dilation_rate": [1, 1, 1], "use_bias": true, "bias_initializer": {"config": {}, "class_name": "Zeros"}, "bias_constraint": null, "kernel_size": [3, 3, 3], "trainable": true, "bias_regularizer": null, "dtype": "float32", "strides": [1, 1, 1], "batch_input_shape": [null, 1, 40, 50, 50], "filters": 512, "activation": "relu", "kernel_regularizer": null}, "class_name": "Conv3D"}, {"config": {"strides": [2, 2, 2], "data_format": "channels_first", "name": "max_pooling3d_29", "pool_size": [2, 2, 2], "padding": "same", "trainable": true}, "class_name": "MaxPooling3D"}, {"config": {"moving_mean_initializer": {"config": {}, "class_name": "Zeros"}, "axis": 1, "beta_constraint": null, "momentum": 0.99, "beta_regularizer": null, "gamma_initializer": {"config": {}, "class_name": "Ones"}, "trainable": true, "gamma_constraint": null, "gamma_regularizer": null, "epsilon": 0.001, "name": "batch_normalization_35", "beta_initializer": {"config": {}, "class_name": "Zeros"}, "moving_variance_initializer": {"config": {}, "class_name": "Ones"}, "center": true, "scale": true}, "class_name": "BatchNormalization"}, {"config": {"name": "dropout_34", "seed": null, "noise_shape": null, "rate": 0.5, "trainable": true}, "class_name": "Dropout"}, {"config": {"kernel_initializer": {"config": {"seed": null, "distribution": "uniform", "mode": "fan_avg", "scale": 1.0}, "class_name": "VarianceScaling"}, "activity_regularizer": null, "data_format": "channels_first", "name": "conv3d_30", "kernel_constraint": null, "padding": "same", "dilation_rate": [1, 1, 1], "use_bias": true, "bias_initializer": {"config": {}, "class_name": "Zeros"}, "bias_constraint": null, "kernel_size": [3, 3, 3], "trainable": true, "bias_regularizer": null, "dtype": "float32", "strides": [1, 1, 1], "batch_input_shape": [null, 1, 40, 50, 50], "filters": 1024, "activation": "relu", "kernel_regularizer": null}, "class_name": "Conv3D"}, {"config": {"strides": [2, 2, 2], "data_format": "channels_first", "name": "max_pooling3d_30", "pool_size": [2, 2, 2], "padding": "same", "trainable": true}, "class_name": "MaxPooling3D"}, {"config": {"moving_mean_initializer": {"config": {}, "class_name": "Zeros"}, "axis": 1, "beta_constraint": null, "momentum": 0.99, "beta_regularizer": null, "gamma_initializer": {"config": {}, "class_name": "Ones"}, "trainable": true, "gamma_constraint": null, "gamma_regularizer": null, "epsilon": 0.001, "name": "batch_normalization_36", "beta_initializer": {"config": {}, "class_name": "Zeros"}, "moving_variance_initializer": {"config": {}, "class_name": "Ones"}, "center": true, "scale": true}, "class_name": "BatchNormalization"}, {"config": {"name": "dropout_35", "seed": null, "noise_shape": null, "rate": 0.5, "trainable": true}, "class_name": "Dropout"}, {"config": {"name": "flatten_6", "data_format": "channels_last", "trainable": true}, "class_name": "Flatten"}, {"config": {"kernel_initializer": {"config": {"seed": null, "distribution": "uniform", "mode": "fan_avg", "scale": 1.0}, "class_name": "VarianceScaling"}, "kernel_constraint": null, "activity_regularizer": null, "bias_constraint": null, "name": "dense_12", "units": 1024, "trainable": true, "activation": "relu", "bias_initializer": {"config": {}, "class_name": "Zeros"}, "bias_regularizer": null, "use_bias": true, "kernel_regularizer": null}, "class_name": "Dense"}, {"config": {"moving_mean_initializer": {"config": {}, "class_name": "Zeros"}, "axis": 1, "beta_constraint": null, "momentum": 0.99, "beta_regularizer": null, "gamma_initializer": {"config": {}, "class_name": "Ones"}, "trainable": true, "gamma_constraint": null, "gamma_regularizer": null, "epsilon": 0.001, "name": "batch_normalization_37", "beta_initializer": {"config": {}, "class_name": "Zeros"}, "moving_variance_initializer": {"config": {}, "class_name": "Ones"}, "center": true, "scale": true}, "class_name": "BatchNormalization"}, {"config": {"kernel_initializer": {"config": {"seed": null, "distribution": "uniform", "mode": "fan_avg", "scale": 1.0}, "class_name": "VarianceScaling"}, "kernel_constraint": null, "activity_regularizer": null, "bias_constraint": null, "name": "dense_13", "units": 1024, "trainable": true, "activation": "relu", "bias_initializer": {"config": {}, "class_name": "Zeros"}, "bias_regularizer": null, "use_bias": true, "kernel_regularizer": null}, "class_name": "Dense"}, {"config": {"moving_mean_initializer": {"config": {}, "class_name": "Zeros"}, "axis": 1, "beta_constraint": null, "momentum": 0.99, "beta_regularizer": null, "gamma_initializer": {"config": {}, "class_name": "Ones"}, "trainable": true, "gamma_constraint": null, "gamma_regularizer": null, "epsilon": 0.001, "name": "batch_normalization_38", "beta_initializer": {"config": {}, "class_name": "Zeros"}, "moving_variance_initializer": {"config": {}, "class_name": "Ones"}, "center": true, "scale": true}, "class_name": "BatchNormalization"}, {"config": {"name": "dropout_36", "seed": null, "noise_shape": null, "rate": 0.5, "trainable": true}, "class_name": "Dropout"}, {"config": {"kernel_initializer": {"config": {"seed": null, "distribution": "uniform", "mode": "fan_avg", "scale": 1.0}, "class_name": "VarianceScaling"}, "kernel_constraint": null, "activity_regularizer": null, "bias_constraint": null, "name": "dense_14", "units": 2, "trainable": true, "activation": "softmax", "bias_initializer": {"config": {}, "class_name": "Zeros"}, "bias_regularizer": null, "use_bias": true, "kernel_regularizer": null}, "class_name": "Dense"}], "keras_version": "2.1.6", "backend": "tensorflow", "class_name": "Sequential"}